Compiling CNN model...
_________________________________________________________________
Layer (type)                 Output Shape              Param #   
=================================================================
main_input (InputLayer)      (None, 44, 48, 1)         0         
_________________________________________________________________
conv2d_1 (Conv2D)            (None, 40, 44, 48)        1248      
_________________________________________________________________
dropout_1 (Dropout)          (None, 40, 44, 48)        0         
_________________________________________________________________
flatten_1 (Flatten)          (None, 84480)             0         
_________________________________________________________________
dense_1 (Dense)              (None, 128)               10813568  
_________________________________________________________________
dropout_2 (Dropout)          (None, 128)               0         
_________________________________________________________________
dense_2 (Dense)              (None, 32)                4128      
_________________________________________________________________
dropout_3 (Dropout)          (None, 32)                0         
_________________________________________________________________
el_inel_none_netout (Dense)  (None, 3)                 99        
=================================================================





0 main_input main_inpu
1 conv2d_1/random_uniform/shape conv2d_1
2 conv2d_1/random_uniform/min conv2d_1
3 conv2d_1/random_uniform/max conv2d_1
4 conv2d_1/random_uniform/RandomUniform conv2d_1
5 conv2d_1/random_uniform/sub conv2d_1
6 conv2d_1/random_uniform/mul conv2d_1
7 conv2d_1/random_uniform conv2d_1
8 conv2d_1/kernel conv2d_1
…
